my_mean_mfcc_classifier.tflite (tflite, 9308 bytes, 6 tensors)

arith.constant f2 [64, 13]
0	0x2af1	0.05423
1	0x28aa	0.03644
2	0x280c	0.03162
3	0x3192	0.1741
4	0xaccb	-0.0749
5	0x19da	0.002857
6	0xab3c	-0.05652
7	0xb6b6	-0.4194
8	0x2b7b	0.05844
9	0xa9b8	-0.04468
10	0x31d3	0.182
11	0xb758	-0.459
12	0xb4ce	-0.3003
13	0xb216	-0.1902
14	0xaea2	-0.10364
15	0x3043	0.1332
16	0x332f	0.2245
17	0x3240	0.1953
18	0x3306	0.2195
19	0xb3bf	-0.2421
20	0x30e9	0.1534
21	0x3474	0.2783
22	0xb031	-0.131
23	0x2d1d	0.0799
24	0x1c4c	0.004196
25	0xb33c	-0.2261
26	0x2fa4	0.1194
27	0x3416	0.2554
28	0x2d3f	0.082
29	0x31c6	0.1804
30	0xad64	-0.0842
31	0xb055	-0.1354
32	0xae30	-0.0967
33	0xb1d0	-0.1816
34	0xaec1	-0.1055
35	0xa29c	-0.01291
36	0xac9d	-0.0721
37	0x3475	0.2786
38	0x2e76	0.10095
39	0xb109	-0.1573
40	0x2d66	0.08435
41	0xb12c	-0.1616
42	0xb11b	-0.1595
43	0xad91	-0.087
44	0x2880	0.03516
45	0x26b3	0.02617
46	0xabda	-0.06134
47	0xaf83	-0.1174
48	0xb418	-0.2559
49	0x294c	0.04138
50	0x32db	0.2142
51	0xb211	-0.1896
52	0xa9d1	-0.04544
53	0xaa84	-0.0509
54	0xb31b	-0.222
55	0x26cd	0.02657
56	0xaedb	-0.1071
57	0x28d6	0.03778
58	0xb070	-0.1387
59	0x2f48	0.1138
60	0x335e	0.2302
61	0x2519	0.01991
62	0x30ab	0.1459
63	0x2903	0.03915
64	0xb421	-0.258
65	0x28f6	0.03876
66	0x34d2	0.3013
67	0xb08c	-0.1421
68	0x321c	0.1909
69	0x31e3	0.184
70	0xa928	-0.04028
71	0x3171	0.17
72	0x305c	0.1362
73	0x2554	0.02081
74	0x3021	0.129
75	0xb410	-0.254
76	0xadce	-0.0907
77	0xaf0c	-0.1101
78	0x28ee	0.0385
79	0x2d03	0.0783
80	0x34ac	0.292
81	0xa592	-0.02176
82	0xb13b	-0.1635
83	0xab96	-0.05927
84	0xa8b0	-0.03662
85	0x2dd3	0.091
86	0x33ce	0.2439
87	0xb533	-0.325
88	0x277d	0.02925
89	0x2b13	0.05527
90	0xa885	-0.0353
91	0x21c8	0.01129
92	0x34cc	0.2998
93	0xb45e	-0.273
94	0x2841	0.03323
95	0xa75f	-0.0288
96	0x3260	0.1992
97	0x2e29	0.09625
98	0x31bc	0.1792
99	0xb151	-0.1661
100	0x2cf2	0.0773
101	0xb43c	-0.2646
102	0x2afb	0.05453
103	0x2afe	0.05463
104	0x2f3b	0.113
105	0x3039	0.132
106	0x31a4	0.1763
107	0x34c5	0.298
108	0x3232	0.1936
109	0x2b41	0.05667
110	0xb2d6	-0.2136
111	0x943b	-0.001033
112	0x2dc7	0.0903
113	0xae98	-0.103
114	0xb677	-0.404
115	0xb41d	-0.257
116	0x247d	0.01753
117	0xb2cd	-0.2125
118	0x317a	0.1711
119	0xab2e	-0.0561
120	0x2c29	0.065
121	0xb40c	-0.253
122	0xb1f0	-0.1855
123	0x337a	0.2336
124	0xa73d	-0.02827
125	0x2e56	0.099
126	0x3412	0.2544
127	0xae3c	-0.0974
128	0x30c1	0.1486
129	0xb22a	-0.1926
130	0xb3cc	-0.2437
131	0x32ad	0.2086
132	0x337b	0.2338
133	0x1a7c	0.003166
134	0x3472	0.2778
135	0x3226	0.1921
136	0x345c	0.2725
137	0xa8aa	-0.03644
138	0x3332	0.2249
139	0xb118	-0.1592
140	0x33e3	0.2465
141	0xb41b	-0.2566
142	0xb237	-0.1942
143	0xb1a1	-0.1759
144	0x3160	0.168
145	0xb3e3	-0.2465
146	0xab6a	-0.05792
147	0x2f8d	0.118
148	0xb3e0	-0.2461
149	0x344c	0.2686
150	0xb1e4	-0.1841
151	0xabe5	-0.06168
152	0xa701	-0.02736
153	0xaeb9	-0.10504
154	0x3239	0.1945
155	0x2f25	0.11163
156	0xb001	-0.1251
157	0xb302	-0.219
158	0x3317	0.2216
159	0xae43	-0.09784
160	0xaaed	-0.0541
161	0x31db	0.183
162	0xb3e3	-0.2465
163	0xa255	-0.01237
164	0x3178	0.1709
165	0x32b3	0.2094
166	0xb397	-0.2372
167	0x3245	0.1959
168	0x25c8	0.02258
169	0x263b	0.02434
170	0x2ce4	0.0764
171	0xb334	-0.2251
172	0xb144	-0.1646
173	0x2fd9	0.1226
174	0x2167	0.01055
175	0x3415	0.2551
176	0x3466	0.275
177	0x2708	0.02747
178	0x3212	0.1897
179	0x316d	0.1696
180	0x340d	0.2532
181	0x2f13	0.11053
182	0x25f3	0.02324
183	0x2885	0.0353
184	0x2e79	0.10114
185	0xac20	-0.06445
186	0x30f3	0.1547
187	0xb314	-0.2212
188	0xab0a	-0.055
189	0xb00d	-0.1266
190	0xb3a9	-0.2394
191	0x9cba	-0.004616
192	0x36a1	0.4143
193	0x31fb	0.1869
194	0x31fc	0.187
195	0x3396	0.237
196	0x2467	0.0172
197	0xacc7	-0.07465
198	0x306d	0.1383
199	0x2e82	0.1017
200	0xb1c3	-0.18
201	0xadf3	-0.09296
202	0x3671	0.4026
203	0x1fe1	0.007694
204	0x2cf5	0.07745
205	0xad93	-0.0871
206	0x28cb	0.03745
207	0xa702	-0.02737
208	0x2173	0.01064
209	0xb190	-0.1738
210	0xb398	-0.2373
211	0x3122	0.1604
212	0xac0d	-0.0633
213	0x2c76	0.0697
214	0x2065	0.00858
215	0x3031	0.131
216	0x9b65	-0.00361
217	0xa49c	-0.018
218	0xb1d3	-0.182
219	0x3021	0.129
220	0xb447	-0.2673
221	0xaa80	-0.05078
222	0x2b7d	0.0585
223	0x30c3	0.1488
224	0x2c79	0.0699
225	0xb14a	-0.1653
226	0x3158	0.167
227	0x2cb2	0.07336
228	0xabb1	-0.0601
229	0xb2c3	-0.2113
230	0x3455	0.2708
231	0xb34d	-0.2281
232	0xa93a	-0.04083
233	0xaa91	-0.0513
234	0x2ea1	0.1036
235	0x309d	0.1442
236	0x348f	0.285
237	0xa3e2	-0.015396
238	0x2bcc	0.0609
239	0xb0da	-0.1516
240	0x29ca	0.04523
241	0xaebc	-0.1052
242	0xb1cc	-0.1812
243	0xb294	-0.2056
244	0x306f	0.1385
245	0x28f4	0.0387
246	0xb223	-0.1918
247	0xb0aa	-0.1458
248	0x3397	0.2372
249	0xb045	-0.1334
250	0xaefd	-0.1092
251	0xacec	-0.0769
252	0x3309	0.2198
253	0x30ac	0.146
254	0x341b	0.2566
255	0xb35b	-0.2299

arith.constant1 f2 [64]
0	0x0f34	0.0004396
1	0x0000	0.0
2	0x0683	9.936e-05
3	0x0000	0.0
4	0x0000	0.0
5	0x9bfb	-0.003897
6	0x1ee8	0.006744
7	0x25cf	0.02269
8	0x0f22	0.0004354
9	0x0000	0.0
10	0x0000	0.0
11	0x0000	0.0
12	0x0000	0.0
13	0x0f68	0.000452
14	0x286d	0.03458
15	0x006a	6.3e-06
16	0x2aa7	0.05197
17	0x0000	0.0
18	0x9e5f	-0.00622
19	0x0000	0.0
20	0x9ac7	-0.00331
21	0x2845	0.03336
22	0x0000	0.0
23	0x114f	0.000648
24	0x0000	0.0
25	0x0000	0.0
26	0x0000	0.0
27	0x1a0a	0.002949
28	0x0000	0.0
29	0x9e26	-0.006004
30	0x0000	0.0
31	0x2519	0.01991
32	0x0000	0.0
33	0xa1ef	-0.01159
34	0x0136	1.85e-05
35	0x997e	-0.002682
36	0x0000	0.0
37	0xab86	-0.05878
38	0x0000	0.0
39	0x2967	0.0422
40	0x0000	0.0
41	0x919c	-0.0006847
42	0x114a	0.0006456
43	0x0000	0.0
44	0x2139	0.0102
45	0x0889	0.0001384
46	0x0000	0.0
47	0x0000	0.0
48	0x0000	0.0
49	0x0000	0.0
50	0x0000	0.0
51	0x0000	0.0
52	0x0d16	0.0003104
53	0x0000	0.0
54	0x0000	0.0
55	0x0000	0.0
56	0x8833	-0.0001281
57	0x0000	0.0
58	0x0000	0.0
59	0x0b86	0.0002296
60	0x0eb1	0.0004084
61	0xacb9	-0.0738
62	0x0000	0.0
63	0x0f9d	0.0004647

arith.constant2 f2 [6]
0	0x2bcd	0.06094
1	0x18a8	0.002274
2	0x2e4f	0.0986
3	0xa284	-0.012726
4	0xb010	-0.127
5	0x19ec	0.002892

arith.constant3 f2 [6, 32]
0	0xb07b	-0.14
1	0xb0ed	-0.1539
2	0x3610	0.379
3	0xb036	-0.1316
4	0x238c	0.01474
5	0xb183	-0.1722
6	0xb79c	-0.4756
7	0x2dd7	0.09125
8	0x3625	0.384
9	0xb759	-0.4592
10	0xb308	-0.2197
11	0x3519	0.3186
12	0xb451	-0.2698
13	0x377e	0.4683
14	0xb840	-0.5312
15	0xa9c2	-0.04498
16	0x27cd	0.03047
17	0x2ae6	0.0539
18	0xaf01	-0.10944
19	0x2cb3	0.0734
20	0xb69b	-0.4128
21	0x28df	0.03806
22	0x3837	0.527
23	0xae78	-0.1011
24	0x31e1	0.1837
25	0xb4a7	-0.2908
26	0x30ad	0.1461
27	0x3428	0.2598
28	0xb078	-0.1396
29	0x1ab3	0.003271
30	0xad2d	-0.0809
31	0x2f16	0.1107
32	0xb81d	-0.514
33	0xb53d	-0.3274
34	0xb49f	-0.2888
35	0xa85d	-0.0341
36	0xb880	-0.5625
37	0xb42e	-0.2612
38	0x35fc	0.374
39	0x303e	0.1326
40	0xb839	-0.528
41	0x370d	0.4407
42	0x2a2d	0.04825
43	0xb609	-0.3772
44	0xb0da	-0.1516
45	0x2e11	0.0948
46	0x34cf	0.3005
47	0xb814	-0.51
48	0x384c	0.537
49	0xb4c6	-0.2983
50	0x33ad	0.2399
51	0xb885	-0.565
52	0x2939	0.0408
53	0xb05e	-0.1365
54	0xb021	-0.129
55	0xae15	-0.09503
56	0xac92	-0.0714
57	0x370f	0.4412
58	0x36ef	0.4333
59	0xb936	-0.6514
60	0x3381	0.2345
61	0x368f	0.41
62	0x365d	0.3977
63	0xb796	-0.474
64	0xa96c	-0.04236
65	0x36ec	0.4326
66	0xb46c	-0.2764
67	0xac27	-0.0649
68	0x3521	0.3206
69	0x3518	0.3184
70	0x31ed	0.1852
71	0xb52e	-0.3237
72	0xb822	-0.5166
73	0x357b	0.3425
74	0xb8e5	-0.612
75	0x3670	0.4023
76	0xb44d	-0.2688
77	0x9eb5	-0.00655
78	0x2c16	0.06384
79	0xb493	-0.286
80	0x36a8	0.416
81	0xb539	-0.3264
82	0xb096	-0.1433
83	0x351a	0.3188
84	0xb839	-0.528
85	0xb8cf	-0.601
86	0xb726	-0.4468
87	0x2ae7	0.05392
88	0xaf1a	-0.11096
89	0xa8ea	-0.0384
90	0x2e96	0.1029
91	0x2fba	0.1207
92	0xb85b	-0.5444
93	0x370c	0.4404
94	0x3226	0.1921
95	0x32aa	0.2083
96	0xba16	-0.7607
97	0xb5dd	-0.3665
98	0xb5ee	-0.3706
99	0x3661	0.3987
100	0x30e3	0.1527
101	0xb81d	-0.514
102	0xa405	-0.0157
103	0x36dd	0.429
104	0x2a5e	0.04974
105	0xac58	-0.0679
106	0x23e6	0.01543
107	0xb5aa	-0.354
108	0x3446	0.267
109	0xb517	-0.318
110	0xb9bd	-0.7173
111	0x3577	0.3416
112	0xaf21	-0.1114
113	0x30fc	0.1558
114	0xb220	-0.1914
115	0xb663	-0.3992
116	0x34be	0.2964
117	0x33f6	0.2488
118	0xae6d	-0.1004
119	0xb694	-0.4111
120	0xb651	-0.3948
121	0x3274	0.2017
122	0xb401	-0.2502
123	0x2fc4	0.12134
124	0xb44c	-0.2686
125	0x2c73	0.0695
126	0xb502	-0.313
127	0xb7e5	-0.4934
128	0xb263	-0.1996
129	0x3243	0.1957
130	0xb1ef	-0.1854
131	0xa844	-0.03333
132	0xb53b	-0.327
133	0x34d0	0.3008
134	0xb0ac	-0.146
135	0xb3d5	-0.2448
136	0x348e	0.2847
137	0xa4f6	-0.01938
138	0xb7a3	-0.4773
139	0xb5ce	-0.3628
140	0xb628	-0.3848
141	0xb40d	-0.2532
142	0x322e	0.1931
143	0x318b	0.1732
144	0x36eb	0.4324
145	0x3387	0.2352
146	0x3650	0.3945
147	0xaf5e	-0.1151
148	0xb5d6	-0.3647
149	0xb67b	-0.405
150	0x368c	0.4092
151	0x34ab	0.2917
152	0x315a	0.1672
153	0x2bee	0.06195
154	0x33cf	0.244
155	0xb572	-0.3403
156	0x3739	0.4514
157	0xb580	-0.3438
158	0xb21b	-0.1908
159	0x327a	0.2024
160	0xb83d	-0.53
161	0x33b4	0.2407
162	0x319e	0.1755
163	0xb51f	-0.32
164	0x35e0	0.3672
165	0xb7c3	-0.485
166	0xb76e	-0.4644
167	0x324a	0.1965
168	0xb5f8	-0.373
169	0x363f	0.3904
170	0x31f3	0.1859
171	0x32d5	0.2135
172	0x3318	0.2217
173	0x355a	0.3345
174	0xac34	-0.0657
175	0xb64e	-0.394
176	0xb928	-0.6445
177	0x3384	0.2349
178	0xafee	-0.1239
179	0xb5ad	-0.3547
180	0x352a	0.3228
181	0xab7a	-0.0584
182	0xb3aa	-0.2395
183	0xb217	-0.1903
184	0xb58d	-0.347
185	0xb2c7	-0.2118
186	0xb233	-0.1937
187	0x2afd	0.0546
188	0x2f5d	0.11505
189	0xaebe	-0.10535
190	0x3782	0.4692
191	0x3522	0.3208

arith.constant4 f2 [32]
0	0xbf69	-1.853
1	0x475c	7.36
2	0x4e16	24.34
3	0xcd42	-21.03
4	0x4e66	25.6
5	0xcb54	-14.66
6	0xc11d	-2.557
7	0xbedb	-1.714
8	0x4429	4.16
9	0x4dbb	22.92
10	0x4db4	22.81
11	0x4d86	22.1
12	0x4b73	14.9
13	0x507c	35.88
14	0xcf3c	-28.94
15	0xcc25	-16.58
16	0xcdc7	-23.11
17	0xcdc4	-23.06
18	0xd177	-43.72
19	0x4bbf	15.49
20	0x4dd4	23.31
21	0x4d13	20.3
22	0xcd37	-20.86
23	0xd039	-33.78
24	0xce6b	-25.67
25	0xcb8a	-15.08
26	0xc8f8	-9.94
27	0x4d4e	21.22
28	0xd16e	-43.44
29	0x247f	0.01756
30	0x4f8d	30.2
31	0x3c78	1.117

arith.constant5 f2 [32, 64]
0	0x2db8	0.08936
1	0xc417	-4.09
2	0xa197	-0.01092
3	0xc921	-10.26
4	0xca69	-12.82
5	0xae7a	-0.1012
6	0x2e6d	0.1004
7	0xb273	-0.2015
8	0x240b	0.0158
9	0xc8ce	-9.61
10	0x4507	5.027
11	0xbf15	-1.7705
12	0x37a8	0.4785
13	0x2278	0.012634
14	0x2f4f	0.1142
15	0x222c	0.012054
16	0x1629	0.001504
17	0x4806	8.05
18	0x3130	0.1621
19	0x4722	7.133
20	0xad07	-0.07855
21	0x3949	0.6606
22	0xc7b8	-7.72
23	0xb39c	-0.2378
24	0xc90c	-10.09
25	0xc9ab	-11.336
26	0xbe82	-1.627
27	0x33a2	0.2385
28	0xbda0	-1.406
29	0x4730	7.188
30	0x4482	4.508
31	0xa850	-0.0337
32	0x37c7	0.486
33	0xc182	-2.754
34	0xa4ce	-0.01877
35	0xac0b	-0.0632
36	0xc80e	-8.11
37	0x29d9	0.0457
38	0xc2f7	-3.482
39	0x2fde	0.1229
40	0xc5af	-5.684
41	0xb005	-0.1256
42	0x2ae2	0.05377
43	0xb978	-0.6836
44	0xb42c	-0.2607
45	0x2475	0.01741
46	0x4a7d	12.98
47	0xc973	-10.9
48	0x365d	0.3977
49	0xc050	-2.156
50	0xbdd2	-1.455
51	0x40d9	2.424
52	0xa9ef	-0.04636
53	0x3cb4	1.176
54	0x442c	4.17
55	0x48b3	9.4
56	0x9aa8	-0.00325
57	0xc94a	-10.58
58	0x49b8	11.44
59	0x26aa	0.02603
60	0x9628	-0.001503
61	0x9fd9	-0.007664
62	0x49b7	11.43
63	0x2c6e	0.0692
64	0xa9c4	-0.04504
65	0x3850	0.539
66	0xac0a	-0.0631
67	0x3ccc	1.199
68	0x4431	4.19
69	0x2801	0.03128
70	0x2949	0.0413
71	0xad52	-0.0831
72	0xad79	-0.0855
73	0xc49f	-4.62
74	0x34bf	0.2966
75	0x4670	6.438
76	0x44c4	4.766
77	0x3100	0.1562
78	0x26b6	0.02621
79	0xa192	-0.01088
80	0x1fa4	0.00746
81	0xc5eb	-5.918
82	0xad27	-0.0805
83	0xbdcd	-1.45
84	0x300f	0.1268
85	0x3cd0	1.203
86	0xc968	-10.81
87	0x2ecf	0.1064
88	0x4043	2.13
89	0x2111	0.009895
90	0xc747	-7.277
91	0xb6de	-0.4292
92	0xc2f6	-3.48
93	0x40f1	2.47
94	0x440f	4.06
95	0x2b14	0.0553
96	0xc1ac	-2.836
97	0xb774	-0.4658
98	0xa76c	-0.02899
99	0x347c	0.2803
100	0xc20a	-3.02
101	0xa626	-0.02402
102	0x4126	2.574
103	0xafc7	-0.1215
104	0xb579	-0.342
105	0xaddd	-0.0916
106	0x2890	0.03564
107	0xc4d5	-4.832
108	0xb1f6	-0.1863
109	0xa19b	-0.01095
110	0x45a8	5.656
111	0xc96d	-10.85
112	0xc77b	-7.48
113	0xc585	-5.52
114	0xc02c	-2.086
115	0x474c	7.297
116	0x274a	0.02847
117	0x4616	6.086
118	0xba79	-0.809
119	0xc29b	-3.303
120	0x992d	-0.002527
121	0xc5d9	-5.848
122	0xc3e8	-3.953
123	0x2958	0.04175
124	0xa8ed	-0.03848
125	0x2d57	0.08344
126	0x42b8	3.36
127	0x2ca0	0.07227
128	0xae64	-0.09985
129	0xc029	-2.08
130	0xb19f	-0.1757
131	0x40f7	2.482
132	0x4758	7.344
133	0xa89c	-0.036
134	0x2dbf	0.0898
135	0xaa48	-0.04907
136	0xa48a	-0.01773
137	0x3dd6	1.459
138	0xbf1a	-1.775
139	0xbe44	-1.566
140	0xc72a	-7.164
141	0xa97a	-0.0428
142	0xb421	-0.258
143	0x94f7	-0.001212
144	0x253a	0.02042
145	0x4247	3.139
146	0xad51	-0.08307
147	0x45f9	5.973
148	0xa5cb	-0.02263
149	0x3547	0.3298
150	0xc164	-2.695
151	0x2bd4	0.06116
152	0xc476	-4.46
153	0xc677	-6.465
154	0x31ed	0.1852
155	0xb3fd	-0.2496
156	0xc35d	-3.682
157	0x3b09	0.8794
158	0x41c2	2.879
159	0x2a3f	0.0488
160	0x4529	5.16
161	0x41eb	2.959
162	0x2617	0.02379
163	0xb5b0	-0.3555
164	0x4578	5.47
165	0x9f40	-0.00708
166	0xc570	-5.438
167	0x274b	0.02849
168	0x4661	6.38
169	0xa70d	-0.02754
170	0xa4b5	-0.01839
171	0xc180	-2.75
172	0x3355	0.2291
173	0x9f42	-0.007088
174	0xc1b3	-2.85
175	0x442b	4.168
176	0x4704	7.016
177	0x3407	0.2517
178	0x3eba	1.682
179	0x3e1b	1.526
180	0x2035	0.00822
181	0x453c	5.234
182	0x3de8	1.477
183	0x43b4	3.852
184	0xa43a	-0.01651
185	0x3f60	1.844
186	0xbfae	-1.92
187	0xa73e	-0.02829
188	0x10bb	0.0005774
189	0x2db9	0.0894
190	0xc7b8	-7.72
191	0xa52c	-0.0202
192	0xb19d	-0.1754
193	0x49e7	11.805
194	0x2e49	0.0982
195	0x42fa	3.488
196	0x315a	0.1672
197	0x27a7	0.02989
198	0xaa27	-0.04807
199	0x24c2	0.01859
200	0xaf56	-0.1146
201	0x43c2	3.879
202	0xc4d3	-4.824
203	0xc990	-11.125
204	0x4832	8.39
205	0xb059	-0.1359
206	0x35bb	0.3582
207	0x9a27	-0.003004
208	0xaa5f	-0.04977
209	0xca8e	-13.11
210	0x2be9	0.0618
211	0xb672	-0.4028
212	0x2fc0	0.1211
213	0xbd30	-1.297
214	0x3e78	1.617
215	0x30eb	0.1537
216	0xbc17	-1.022
217	0x4a20	12.25
218	0xc87c	-8.97
219	0x386b	0.5522
220	0xc3a6	-3.824
221	0xc6b4	-6.703
222	0xc9de	-11.734
223	0x2990	0.04346
224	0xc89e	-9.234
225	0xb074	-0.1392
226	0x9d71	-0.005314
227	0x2fa4	0.1194
228	0x4170	2.719
229	0x287e	0.0351
230	0x485b	8.71
231	0x9081	-0.00055
232	0x4373	3.725
233	0xa47a	-0.01749
234	0xa005	-0.00785
235	0xc1f8	-2.984
236	0x2d65	0.0843
237	0x2754	0.02863
238	0xc8b1	-9.38
239	0xc314	-3.54
240	0x49e6	11.8
241	0x3d8a	1.385
242	0x4025	2.072
243	0xc892	-9.14
244	0x2644	0.02448
245	0x48c0	9.5
246	0xc890	-9.125
247	0xc03f	-2.123
248	0x1d7a	0.00535
249	0x3c13	1.019
250	0xc5b3	-5.7
251	0xa86f	-0.03464
252	0xaa2c	-0.04822
253	0x9c3d	-0.00414
254	0xc470	-4.438
255	0xaa68	-0.05005
